TitanicNet/MyFirstTita.pt (torch_old, 4436 bytes, 22 tensors)

embeds.0.weight f4 [2, 1]
0	0x3f9c6f5a	1.2221482
1	0xbf08fa45	-0.5350688

embeds.1.weight f4 [3, 2]
0	0xbe396551	-0.18105055
1	0xbef8da38	-0.48603988
2	0xc012ff3c	-2.2968283
3	0xbf6e2e2d	-0.9303921
4	0xbe373734	-0.17892152
5	0x3f5f2c7d	0.8717726

embeds.2.weight f4 [7, 4]
0	0xbee11388	-0.43960214
1	0xbfc11b30	-1.5086422
2	0x3f9be156	1.2178142
3	0xbf2f3f3c	-0.68455863
4	0x3ea42a4e	0.32063526
5	0x3fb89659	1.4420882
6	0xbf3276ca	-0.6971251
7	0x3f08ede4	0.5348799
8	0x3e67f02c	0.22650212
9	0xbfadf269	-1.3589603
10	0xbe8f8473	-0.28030738
11	0x3eb60f6b	0.35558638
12	0x3f5c1049	0.8596235
13	0x3e338faa	0.17535272
14	0xbe135272	-0.14386919
15	0x4026acfd	2.6043084
16	0xbfb3f66b	-1.4059576
17	0xbfab2aae	-1.33724
18	0x3fb13948	1.3845606
19	0xbf9bcf1b	-1.2172579
20	0x3e6aea48	0.22940934
21	0xbf9ebe62	-1.240185
22	0x3f65d797	0.8978209
23	0x3e177647	0.14791213
24	0x3e0d4371	0.13795258
25	0xbf45dc2c	-0.7728908
26	0x3f6cafd8	0.92455816
27	0x3f12410d	0.5713051

embeds.3.weight f4 [7, 4]
0	0xbf4ebfbc	-0.80761313
1	0xbf8f0e90	-1.1176319
2	0x3da53314	0.08066383
3	0xbf93c4e2	-1.1544459
4	0xbdbce07f	-0.09222507
5	0xc019bded	-2.4022171
6	0xbfe894bd	-1.8170391
7	0xbd917472	-0.07102288
8	0xbf1573e3	-0.58379954
9	0x3efbf88f	0.49213073
10	0x3f68c2bb	0.90922135
11	0x3faa0b12	1.3284628
12	0xbfe507d7	-1.7893018
13	0x3ecae632	0.3962875
14	0x3f22a8de	0.6353892
15	0xbf081f96	-0.53173196
16	0xc00eed24	-2.233224
17	0xbf03b47d	-0.5144728
18	0xbf84da9d	-1.0379215
19	0x3fb0a0d4	1.3799081
20	0x3fbe93b0	1.4888821
21	0xbf8bda76	-1.0926044
22	0xbebf0e0c	-0.37315404
23	0xbfec4942	-1.8459857
24	0xbde366c6	-0.11103587
25	0x3fc743b5	1.5567538
26	0xbf96ce61	-1.1781732
27	0x3def4c06	0.11684422

bn_cont.weight f4 [2]
0	0x3f5d1a5d	0.8636835
1	0x3f7dc024	0.9912131

bn_cont.bias f4 [2]
0	0xbd0b09a1	-0.03394473
1	0xbd8b7684	-0.068097144

bn_cont.running_mean f4 [2]
0	0x4203f12b	32.985516
1	0x41eb0531	29.377535

bn_cont.running_var f4 [2]
0	0x45333dd1	2867.8635
1	0x435a1a0b	218.10173

layers.0.weight f4 [6, 13]
0	0x3df9875f	0.12184023
1	0x3d8a3716	0.06748788
2	0xbe8b4ca1	-0.272069
3	0x3e943bec	0.28951967
4	0x3ccca0af	0.024978964
5	0xbd99864d	-0.07496319
6	0xbd5e11cb	-0.054216187
7	0x3ea09b8d	0.31368676
8	0xbce101a0	-0.027466595
9	0xbc369382	-0.011143567
10	0xbcfb8bf2	-0.03070638
11	0x3d169a88	0.036768466
12	0xbe34d8d2	-0.17660835
13	0x3d613de4	0.054990664
14	0x3dcd763d	0.10032318
15	0xbdcbd7ea	-0.09953292
16	0xbd3bc8c0	-0.045845747
17	0xbe93edd9	-0.288924
18	0x3e2adbac	0.1668536
19	0xbd44d41e	-0.048053853
20	0xbe5866c1	-0.21132948
21	0x3dca329a	0.09872933
22	0x3e0aa710	0.13540292
23	0xbea2e958	-0.31818652
24	0xbdf03d53	-0.11730447
25	0xbbf03390	-0.0073303655
26	0x3eb96f49	0.36217716
27	0x3b8a4ac8	0.0042203404
28	0xbe242e5d	-0.16033311
29	0x3e9c3273	0.3050724
30	0x3c379cec	0.011206847
31	0x3e05de55	0.13073094
32	0xbde13094	-0.10995594
33	0xbcc27091	-0.023735316
34	0xbda33303	-0.07968714
35	0x3da21e79	0.079159684
36	0x3d911734	0.07084504
37	0x3d627133	0.055283736
38	0x3ccef2f6	0.025262337
39	0x3e51a165	0.20471723
40	0x3e392031	0.18078686
41	0xbdeed375	-0.11661426
42	0x3e305cda	0.1722292
43	0x3e506f4b	0.20354955
44	0x3e14047f	0.1445484
45	0x3c4147a6	0.0117968675
46	0x3df45976	0.11931126
47	0x3e8c65b5	0.27421346
48	0xbd1e07e5	-0.038581748
49	0xbdd24624	-0.102672845
50	0xbe93998f	-0.28828093
51	0x3e0545e5	0.13014944
52	0xbe8b06f6	-0.27153748
53	0xbe87c2f5	-0.26515928
54	0x3e997a0d	0.2997593
55	0x3e362f65	0.17791517
56	0xbd8f2d08	-0.06991011
57	0x3e1d4267	0.15357362
58	0xbbf9467b	-0.007607279
59	0x3d5b584f	0.053551015
60	0x3e3c6336	0.18397221
61	0xbe262a47	-0.16227065
62	0x3dc6d597	0.09708708
63	0x3d5bc1be	0.053651564
64	0x3d511f8c	0.051055476
65	0x3cf3fc6a	0.029783446
66	0xbde4b9ce	-0.11168252
67	0xbdde990b	-0.108690344
68	0x3e864c7d	0.2623023
69	0x3ec1c321	0.37844184
70	0xbe436eec	-0.19085282
71	0x3e25f0c1	0.16205122
72	0x3d19af0f	0.037520465
73	0x3d430034	0.047607616
74	0x3d51c696	0.051214777
75	0x3e535a12	0.20639828
76	0xbe9e5d8f	-0.30930755
77	0xbd85cbf3	-0.06533041

layers.0.bias f4 [6]
0	0x3e2c7aa6	0.16843662
1	0xbc8db32c	-0.01729735
2	0xbe4a71af	-0.1976993
3	0xbe627b45	-0.22117336
4	0x3e5fc12a	0.2185103
5	0x3e31dd95	0.17369683

layers.2.weight f4 [6]
0	0x3f93a6a2	1.1535227
1	0x3f7f61a2	0.9975835
2	0x3f93c0f7	1.1543263
3	0x3f617f93	0.8808529
4	0x3f7f88e3	0.9981825
5	0x3f552658	0.8326163

layers.2.bias f4 [6]
0	0xbe36c895	-0.17849953
1	0x3e464203	0.19361119
2	0xbd703051	-0.058639828
3	0x3e387780	0.18014336
4	0x3e3f43d6	0.18678221
5	0x3e3a0eed	0.18169756

layers.2.running_mean f4 [6]
0	0x3db3b312	0.08774389
1	0x3f362bf7	0.71160835
2	0x3ddfc3c8	0.10926014
3	0x3a342a6e	0.00068727776
4	0x3ea605f4	0.32426417
5	0x3e04eee5	0.12981756

layers.2.running_var f4 [6]
0	0x3d09acf0	0.03361219
1	0x3e5af9f2	0.21384409
2	0x3d0a0c7f	0.033703323
3	0x38c36942	9.3179304e-05
4	0x3d82196d	0.06352506
5	0x3def7917	0.11693018

layers.3.weight f4 [3, 6]
0	0x3c7affac	0.015319746
1	0x3e3cd8ac	0.18442029
2	0x3ec5463c	0.38530147
3	0x3cc77b80	0.024350882
4	0xbc04e1e5	-0.008110498
5	0x3e3150e1	0.17316009
6	0xbeabae93	-0.33531627
7	0x3e3d2408	0.18470776
8	0xbe14cab7	-0.14530455
9	0x3e8f4335	0.27980962
10	0x3e8f12d4	0.27944052
11	0x3e7be7c6	0.24600133
12	0xbe32493e	-0.17410752
13	0xbd2f159a	-0.04274521
14	0xbd8f5f10	-0.070005536
15	0x3bad6443	0.005291493
16	0x3e128495	0.14308389
17	0x3d92e5cf	0.07172739

layers.3.bias f4 [3]
0	0x3ea53c28	0.32272458
1	0x3f0950b7	0.53638786
2	0x3e9f3453	0.31094608

layers.5.weight f4 [3]
0	0x3f9f8cfd	1.2464901
1	0x3f862b8b	1.0482038
2	0x3f7c0318	0.9844222

layers.5.bias f4 [3]
0	0xbe54df57	-0.20788322
1	0x3e29c25d	0.1657805
2	0x3e133ec9	0.1437942

layers.5.running_mean f4 [3]
0	0x3ec5080e	0.38482708
1	0x3f5f42bb	0.872112
2	0x3ed20b1e	0.41024107

layers.5.running_var f4 [3]
0	0x3e40fb21	0.18845798
1	0x3ea11aad	0.31465665
2	0x3d80cc6f	0.062889926

layers.6.weight f4 [2, 3]
0	0xbeb7a198	-0.35865474
1	0x3ed03b43	0.40670213
2	0xbd24e57a	-0.04025791
3	0x3e8abcd9	0.27097204
4	0xbec1e616	-0.37870854
5	0xbea58d7d	-0.3233451

layers.6.bias f4 [2]
0	0x3ea40c25	0.32040516
1	0x3e11639a	0.14198151
